Sun Aug  9 09:53:32 2020_________________________________________________________________
Layer (type)                 Output Shape              Param #   
=================================================================
lambda_1 (Lambda)            (None, 66, 200, 3)        0         
_________________________________________________________________
conv2d_1 (Conv2D)            (None, 31, 98, 24)        1824      
_________________________________________________________________
conv2d_2 (Conv2D)            (None, 14, 47, 36)        21636     
_________________________________________________________________
conv2d_3 (Conv2D)            (None, 5, 22, 48)         43248     
_________________________________________________________________
conv2d_4 (Conv2D)            (None, 3, 20, 64)         27712     
_________________________________________________________________
conv2d_5 (Conv2D)            (None, 1, 18, 64)         36928     
_________________________________________________________________
flatten_1 (Flatten)          (None, 1152)              0         
_________________________________________________________________
dense_1 (Dense)              (None, 1164)              1342092   
_________________________________________________________________
dense_2 (Dense)              (None, 100)               116500    
_________________________________________________________________
dropout_1 (Dropout)          (None, 100)               0         
_________________________________________________________________
dense_3 (Dense)              (None, 50)                5050      
_________________________________________________________________
dropout_2 (Dropout)          (None, 50)                0         
_________________________________________________________________
dense_4 (Dense)              (None, 10)                510       
_________________________________________________________________
dense_5 (Dense)              (None, 1)                 11        
=================================================================
Total params: 1,595,511
Trainable params: 1,595,511
Non-trainable params: 0
_________________________________________________________________
Sun Aug  9 10:17:33 2020_________________________________________________________________
Layer (type)                 Output Shape              Param #   
=================================================================
lambda_1 (Lambda)            (None, 66, 200, 3)        0         
_________________________________________________________________
conv2d_1 (Conv2D)            (None, 31, 98, 24)        1824      
_________________________________________________________________
conv2d_2 (Conv2D)            (None, 14, 47, 36)        21636     
_________________________________________________________________
conv2d_3 (Conv2D)            (None, 5, 22, 48)         43248     
_________________________________________________________________
conv2d_4 (Conv2D)            (None, 3, 20, 64)         27712     
_________________________________________________________________
conv2d_5 (Conv2D)            (None, 1, 18, 128)        73856     
_________________________________________________________________
flatten_1 (Flatten)          (None, 2304)              0         
_________________________________________________________________
dense_1 (Dense)              (None, 512)               1180160   
_________________________________________________________________
dense_2 (Dense)              (None, 256)               131328    
_________________________________________________________________
dropout_1 (Dropout)          (None, 256)               0         
_________________________________________________________________
dense_3 (Dense)              (None, 100)               25700     
_________________________________________________________________
dense_4 (Dense)              (None, 50)                5050      
_________________________________________________________________
dropout_2 (Dropout)          (None, 50)                0         
_________________________________________________________________
dense_5 (Dense)              (None, 10)                510       
_________________________________________________________________
dense_6 (Dense)              (None, 1)                 11        
=================================================================
Total params: 1,511,035
Trainable params: 1,511,035
Non-trainable params: 0
_________________________________________________________________
Sun Aug  9 10:21:55 2020_________________________________________________________________
Layer (type)                 Output Shape              Param #   
=================================================================
lambda_1 (Lambda)            (None, 66, 200, 3)        0         
_________________________________________________________________
conv2d_1 (Conv2D)            (None, 31, 98, 24)        1824      
_________________________________________________________________
conv2d_2 (Conv2D)            (None, 14, 47, 36)        21636     
_________________________________________________________________
conv2d_3 (Conv2D)            (None, 5, 22, 48)         43248     
_________________________________________________________________
conv2d_4 (Conv2D)            (None, 3, 20, 64)         27712     
_________________________________________________________________
conv2d_5 (Conv2D)            (None, 1, 18, 128)        73856     
_________________________________________________________________
flatten_1 (Flatten)          (None, 2304)              0         
_________________________________________________________________
dense_1 (Dense)              (None, 512)               1180160   
_________________________________________________________________
dense_2 (Dense)              (None, 256)               131328    
_________________________________________________________________
dropout_1 (Dropout)          (None, 256)               0         
_________________________________________________________________
dense_3 (Dense)              (None, 100)               25700     
_________________________________________________________________
dense_4 (Dense)              (None, 50)                5050      
_________________________________________________________________
dropout_2 (Dropout)          (None, 50)                0         
_________________________________________________________________
dense_5 (Dense)              (None, 10)                510       
_________________________________________________________________
dense_6 (Dense)              (None, 1)                 11        
=================================================================
Total params: 1,511,035
Trainable params: 1,511,035
Non-trainable params: 0
_________________________________________________________________
Sun Aug  9 10:49:50 2020_________________________________________________________________
Layer (type)                 Output Shape              Param #   
=================================================================
lambda_1 (Lambda)            (None, 66, 200, 3)        0         
_________________________________________________________________
conv2d_1 (Conv2D)            (None, 31, 98, 24)        1824      
_________________________________________________________________
conv2d_2 (Conv2D)            (None, 14, 47, 36)        21636     
_________________________________________________________________
conv2d_3 (Conv2D)            (None, 5, 22, 48)         43248     
_________________________________________________________________
conv2d_4 (Conv2D)            (None, 3, 20, 64)         27712     
_________________________________________________________________
conv2d_5 (Conv2D)            (None, 1, 18, 128)        73856     
_________________________________________________________________
flatten_1 (Flatten)          (None, 2304)              0         
_________________________________________________________________
dense_1 (Dense)              (None, 512)               1180160   
_________________________________________________________________
dense_2 (Dense)              (None, 256)               131328    
_________________________________________________________________
dropout_1 (Dropout)          (None, 256)               0         
_________________________________________________________________
dense_3 (Dense)              (None, 100)               25700     
_________________________________________________________________
dense_4 (Dense)              (None, 50)                5050      
_________________________________________________________________
dropout_2 (Dropout)          (None, 50)                0         
_________________________________________________________________
dense_5 (Dense)              (None, 10)                510       
_________________________________________________________________
dense_6 (Dense)              (None, 1)                 11        
=================================================================
Total params: 1,511,035
Trainable params: 1,511,035
Non-trainable params: 0
_________________________________________________________________
Sun Aug  9 10:52:12 2020Sun Aug  9 10:54:04 2020_________________________________________________________________
Layer (type)                 Output Shape              Param #   
=================================================================
lambda_1 (Lambda)            (None, 66, 200, 3)        0         
_________________________________________________________________
conv2d_1 (Conv2D)            (None, 31, 98, 24)        1824      
_________________________________________________________________
conv2d_2 (Conv2D)            (None, 14, 47, 36)        21636     
_________________________________________________________________
conv2d_3 (Conv2D)            (None, 5, 22, 48)         43248     
_________________________________________________________________
conv2d_4 (Conv2D)            (None, 3, 20, 64)         27712     
_________________________________________________________________
conv2d_5 (Conv2D)            (None, 1, 18, 128)        73856     
_________________________________________________________________
flatten_1 (Flatten)          (None, 2304)              0         
_________________________________________________________________
dense_1 (Dense)              (None, 512)               1180160   
_________________________________________________________________
dense_2 (Dense)              (None, 256)               131328    
_________________________________________________________________
dropout_1 (Dropout)          (None, 256)               0         
_________________________________________________________________
dense_3 (Dense)              (None, 100)               25700     
_________________________________________________________________
dense_4 (Dense)              (None, 50)                5050      
_________________________________________________________________
dropout_2 (Dropout)          (None, 50)                0         
_________________________________________________________________
dense_5 (Dense)              (None, 10)                510       
_________________________________________________________________
dense_6 (Dense)              (None, 1)                 11        
=================================================================
Total params: 1,511,035
Trainable params: 1,511,035
Non-trainable params: 0
_________________________________________________________________
Sun Aug  9 10:56:27 2020_________________________________________________________________
Layer (type)                 Output Shape              Param #   
=================================================================
lambda_1 (Lambda)            (None, 66, 200, 3)        0         
_________________________________________________________________
conv2d_1 (Conv2D)            (None, 31, 98, 24)        1824      
_________________________________________________________________
conv2d_2 (Conv2D)            (None, 14, 47, 36)        21636     
_________________________________________________________________
conv2d_3 (Conv2D)            (None, 5, 22, 48)         43248     
_________________________________________________________________
conv2d_4 (Conv2D)            (None, 3, 20, 64)         27712     
_________________________________________________________________
conv2d_5 (Conv2D)            (None, 1, 18, 128)        73856     
_________________________________________________________________
flatten_1 (Flatten)          (None, 2304)              0         
_________________________________________________________________
dense_1 (Dense)              (None, 512)               1180160   
_________________________________________________________________
dense_2 (Dense)              (None, 256)               131328    
_________________________________________________________________
dropout_1 (Dropout)          (None, 256)               0         
_________________________________________________________________
dense_3 (Dense)              (None, 100)               25700     
_________________________________________________________________
dense_4 (Dense)              (None, 50)                5050      
_________________________________________________________________
dropout_2 (Dropout)          (None, 50)                0         
_________________________________________________________________
dense_5 (Dense)              (None, 10)                510       
_________________________________________________________________
dense_6 (Dense)              (None, 1)                 11        
=================================================================
Total params: 1,511,035
Trainable params: 1,511,035
Non-trainable params: 0
_________________________________________________________________
Sun Aug  9 11:02:14 2020_________________________________________________________________
Layer (type)                 Output Shape              Param #   
=================================================================
lambda_1 (Lambda)            (None, 66, 200, 3)        0         
_________________________________________________________________
conv2d_1 (Conv2D)            (None, 31, 98, 24)        1824      
_________________________________________________________________
conv2d_2 (Conv2D)            (None, 14, 47, 36)        21636     
_________________________________________________________________
conv2d_3 (Conv2D)            (None, 5, 22, 48)         43248     
_________________________________________________________________
conv2d_4 (Conv2D)            (None, 3, 20, 64)         27712     
_________________________________________________________________
conv2d_5 (Conv2D)            (None, 1, 18, 128)        73856     
_________________________________________________________________
flatten_1 (Flatten)          (None, 2304)              0         
_________________________________________________________________
dense_1 (Dense)              (None, 512)               1180160   
_________________________________________________________________
dense_2 (Dense)              (None, 256)               131328    
_________________________________________________________________
dropout_1 (Dropout)          (None, 256)               0         
_________________________________________________________________
dense_3 (Dense)              (None, 100)               25700     
_________________________________________________________________
dense_4 (Dense)              (None, 50)                5050      
_________________________________________________________________
dropout_2 (Dropout)          (None, 50)                0         
_________________________________________________________________
dense_5 (Dense)              (None, 10)                510       
_________________________________________________________________
dense_6 (Dense)              (None, 1)                 11        
=================================================================
Total params: 1,511,035
Trainable params: 1,511,035
Non-trainable params: 0
_________________________________________________________________
Sun Aug  9 11:10:08 2020_________________________________________________________________
Layer (type)                 Output Shape              Param #   
=================================================================
lambda_1 (Lambda)            (None, 66, 200, 3)        0         
_________________________________________________________________
conv2d_1 (Conv2D)            (None, 31, 98, 24)        1824      
_________________________________________________________________
conv2d_2 (Conv2D)            (None, 14, 47, 36)        21636     
_________________________________________________________________
conv2d_3 (Conv2D)            (None, 5, 22, 48)         43248     
_________________________________________________________________
conv2d_4 (Conv2D)            (None, 3, 20, 64)         27712     
_________________________________________________________________
conv2d_5 (Conv2D)            (None, 1, 18, 128)        73856     
_________________________________________________________________
flatten_1 (Flatten)          (None, 2304)              0         
_________________________________________________________________
dense_1 (Dense)              (None, 512)               1180160   
_________________________________________________________________
dense_2 (Dense)              (None, 256)               131328    
_________________________________________________________________
dropout_1 (Dropout)          (None, 256)               0         
_________________________________________________________________
dense_3 (Dense)              (None, 100)               25700     
_________________________________________________________________
dense_4 (Dense)              (None, 50)                5050      
_________________________________________________________________
dropout_2 (Dropout)          (None, 50)                0         
_________________________________________________________________
dense_5 (Dense)              (None, 10)                510       
_________________________________________________________________
dense_6 (Dense)              (None, 1)                 11        
=================================================================
Total params: 1,511,035
Trainable params: 1,511,035
Non-trainable params: 0
_________________________________________________________________
Sun Aug  9 11:12:22 2020_________________________________________________________________
Layer (type)                 Output Shape              Param #   
=================================================================
lambda_1 (Lambda)            (None, 66, 200, 3)        0         
_________________________________________________________________
conv2d_1 (Conv2D)            (None, 31, 98, 24)        1824      
_________________________________________________________________
conv2d_2 (Conv2D)            (None, 14, 47, 36)        21636     
_________________________________________________________________
conv2d_3 (Conv2D)            (None, 5, 22, 48)         43248     
_________________________________________________________________
conv2d_4 (Conv2D)            (None, 3, 20, 64)         27712     
_________________________________________________________________
conv2d_5 (Conv2D)            (None, 1, 18, 128)        73856     
_________________________________________________________________
flatten_1 (Flatten)          (None, 2304)              0         
_________________________________________________________________
dense_1 (Dense)              (None, 512)               1180160   
_________________________________________________________________
dense_2 (Dense)              (None, 256)               131328    
_________________________________________________________________
dropout_1 (Dropout)          (None, 256)               0         
_________________________________________________________________
dense_3 (Dense)              (None, 100)               25700     
_________________________________________________________________
dense_4 (Dense)              (None, 50)                5050      
_________________________________________________________________
dropout_2 (Dropout)          (None, 50)                0         
_________________________________________________________________
dense_5 (Dense)              (None, 10)                510       
_________________________________________________________________
dense_6 (Dense)              (None, 1)                 11        
=================================================================
Total params: 1,511,035
Trainable params: 1,511,035
Non-trainable params: 0
_________________________________________________________________
Sun Aug  9 11:15:52 2020_________________________________________________________________
Layer (type)                 Output Shape              Param #   
=================================================================
lambda_1 (Lambda)            (None, 66, 200, 3)        0         
_________________________________________________________________
conv2d_1 (Conv2D)            (None, 31, 98, 24)        1824      
_________________________________________________________________
conv2d_2 (Conv2D)            (None, 14, 47, 36)        21636     
_________________________________________________________________
conv2d_3 (Conv2D)            (None, 5, 22, 48)         43248     
_________________________________________________________________
conv2d_4 (Conv2D)            (None, 3, 20, 64)         27712     
_________________________________________________________________
conv2d_5 (Conv2D)            (None, 1, 18, 128)        73856     
_________________________________________________________________
flatten_1 (Flatten)          (None, 2304)              0         
_________________________________________________________________
dense_1 (Dense)              (None, 512)               1180160   
_________________________________________________________________
dense_2 (Dense)              (None, 256)               131328    
_________________________________________________________________
dropout_1 (Dropout)          (None, 256)               0         
_________________________________________________________________
dense_3 (Dense)              (None, 100)               25700     
_________________________________________________________________
dense_4 (Dense)              (None, 50)                5050      
_________________________________________________________________
dropout_2 (Dropout)          (None, 50)                0         
_________________________________________________________________
dense_5 (Dense)              (None, 10)                510       
_________________________________________________________________
dense_6 (Dense)              (None, 1)                 11        
=================================================================
Total params: 1,511,035
Trainable params: 1,511,035
Non-trainable params: 0
_________________________________________________________________
Sun Aug  9 11:18:27 2020_________________________________________________________________
Layer (type)                 Output Shape              Param #   
=================================================================
lambda_1 (Lambda)            (None, 66, 200, 3)        0         
_________________________________________________________________
conv2d_1 (Conv2D)            (None, 31, 98, 24)        1824      
_________________________________________________________________
conv2d_2 (Conv2D)            (None, 14, 47, 36)        21636     
_________________________________________________________________
conv2d_3 (Conv2D)            (None, 5, 22, 48)         43248     
_________________________________________________________________
conv2d_4 (Conv2D)            (None, 3, 20, 64)         27712     
_________________________________________________________________
conv2d_5 (Conv2D)            (None, 1, 18, 128)        73856     
_________________________________________________________________
flatten_1 (Flatten)          (None, 2304)              0         
_________________________________________________________________
dense_1 (Dense)              (None, 512)               1180160   
_________________________________________________________________
dense_2 (Dense)              (None, 256)               131328    
_________________________________________________________________
dropout_1 (Dropout)          (None, 256)               0         
_________________________________________________________________
dense_3 (Dense)              (None, 100)               25700     
_________________________________________________________________
dense_4 (Dense)              (None, 50)                5050      
_________________________________________________________________
dropout_2 (Dropout)          (None, 50)                0         
_________________________________________________________________
dense_5 (Dense)              (None, 10)                510       
_________________________________________________________________
dense_6 (Dense)              (None, 1)                 11        
=================================================================
Total params: 1,511,035
Trainable params: 1,511,035
Non-trainable params: 0
_________________________________________________________________
[… ====================

Sun Aug  9 11:39:15 2020_________________________________________________________________
Layer (type)                 Output Shape              Param #   
=================================================================
lambda_1 (Lambda)            (None, 66, 200, 3)        0         
_________________________________________________________________
conv2d_1 (Conv2D)            (None, 31, 98, 24)        1824      
_________________________________________________________________
conv2d_2 (Conv2D)            (None, 14, 47, 36)        21636     
_________________________________________________________________
conv2d_3 (Conv2D)            (None, 5, 22, 48)         43248     
_________________________________________________________________
conv2d_4 (Conv2D)            (None, 3, 20, 64)         27712     
_________________________________________________________________
conv2d_5 (Conv2D)            (None, 1, 18, 128)        73856     
_________________________________________________________________
flatten_1 (Flatten)          (None, 2304)              0         
_________________________________________________________________
dense_1 (Dense)              (None, 512)               1180160   
_________________________________________________________________
dense_2 (Dense)              (None, 256)               131328    
_________________________________________________________________
dropout_1 (Dropout)          (None, 256)               0         
_________________________________________________________________
dense_3 (Dense)              (None, 100)               25700     
_________________________________________________________________
dense_4 (Dense)              (None, 50)                5050      
_________________________________________________________________
dropout_2 (Dropout)          (None, 50)                0         
_________________________________________________________________
dense_5 (Dense)              (None, 10)                510       
_________________________________________________________________
dense_6 (Dense)              (None, 1)                 11        
=================================================================
Total params: 1,511,035
Trainable params: 1,511,035
Non-trainable params: 0
_________________________________________________________________
[… ====================

Sun Aug  9 12:54:46 2020_________________________________________________________________
Layer (type)                 Output Shape              Param #   
=================================================================
lambda_1 (Lambda)            (None, 66, 200, 3)        0         
_________________________________________________________________
conv2d_1 (Conv2D)            (None, 31, 98, 24)        1824      
_________________________________________________________________
conv2d_2 (Conv2D)            (None, 14, 47, 36)        21636     
_________________________________________________________________
conv2d_3 (Conv2D)            (None, 5, 22, 48)         43248     
_________________________________________________________________
conv2d_4 (Conv2D)            (None, 3, 20, 64)         27712     
_________________________________________________________________
conv2d_5 (Conv2D)            (None, 1, 18, 128)        73856     
_________________________________________________________________
flatten_1 (Flatten)          (None, 2304)              0         
_________________________________________________________________
dense_1 (Dense)              (None, 512)               1180160   
_________________________________________________________________
dense_2 (Dense)              (None, 256)               131328    
_________________________________________________________________
dropout_1 (Dropout)          (None, 256)               0         
_________________________________________________________________
dense_3 (Dense)              (None, 100)               25700     
_________________________________________________________________
dense_4 (Dense)              (None, 50)                5050      
_________________________________________________________________
dropout_2 (Dropout)          (None, 50)                0         
_________________________________________________________________
dense_5 (Dense)              (None, 10)                510       
_________________________________________________________________
dense_6 (Dense)              (None, 1)                 11        
=================================================================
Total params: 1,511,035
Trainable params: 1,511,035
Non-trainable params: 0
_________________________________________________________________
Sun Aug  9 12:59:03 2020_________________________________________________________________
Layer (type)                 Output Shape              Param #   
=================================================================
lambda_1 (Lambda)            (None, 66, 200, 3)        0         
_________________________________________________________________
conv2d_1 (Conv2D)            (None, 31, 98, 24)        1824      
_________________________________________________________________
conv2d_2 (Conv2D)            (None, 14, 47, 36)        21636     
_________________________________________________________________
conv2d_3 (Conv2D)            (None, 5, 22, 48)         43248     
_________________________________________________________________
conv2d_4 (Conv2D)            (None, 3, 20, 64)         27712     
_________________________________________________________________
conv2d_5 (Conv2D)            (None, 1, 18, 128)        73856     
_________________________________________________________________
flatten_1 (Flatten)          (None, 2304)              0         
_________________________________________________________________
dense_1 (Dense)              (None, 512)               1180160   
_________________________________________________________________
dense_2 (Dense)              (None, 256)               131328    
_________________________________________________________________
dropout_1 (Dropout)          (None, 256)               0         
_________________________________________________________________
dense_3 (Dense)              (None, 100)               25700     
_________________________________________________________________
dense_4 (Dense)              (None, 50)                5050      
_________________________________________________________________
dropout_2 (Dropout)          (None, 50)                0         
_________________________________________________________________
dense_5 (Dense)              (None, 10)                510       
_________________________________________________________________
dense_6 (Dense)              (None, 1)                 11        
=================================================================
Total params: 1,511,035
Trainable params: 1,511,035
Non-trainable params: 0
_________________________________________________________________
{'val_loss': [… 'loss': [… =================================================================================

Sun Aug  9 13:51:40 2020_________________________________________________________________
Layer (type)                 Output Shape              Param #   
=================================================================
lambda_1 (Lambda)            (None, 66, 200, 3)        0         
_________________________________________________________________
conv2d_1 (Conv2D)            (None, 31, 98, 24)        1824      
_________________________________________________________________
conv2d_2 (Conv2D)            (None, 14, 47, 36)        21636     
_________________________________________________________________
conv2d_3 (Conv2D)            (None, 5, 22, 48)         43248     
_________________________________________________________________
conv2d_4 (Conv2D)            (None, 3, 20, 64)         27712     
_________________________________________________________________
conv2d_5 (Conv2D)            (None, 1, 18, 128)        73856     
_________________________________________________________________
flatten_1 (Flatten)          (None, 2304)              0         
_________________________________________________________________
dense_1 (Dense)              (None, 512)               1180160   
_________________________________________________________________
dense_2 (Dense)              (None, 256)               131328    
_________________________________________________________________
dropout_1 (Dropout)          (None, 256)               0         
_________________________________________________________________
dense_3 (Dense)              (None, 100)               25700     
_________________________________________________________________
dense_4 (Dense)              (None, 50)                5050      
_________________________________________________________________
dropout_2 (Dropout)          (None, 50)                0         
_________________________________________________________________
dense_5 (Dense)              (None, 10)                510       
_________________________________________________________________
dense_6 (Dense)              (None, 1)                 11        
=================================================================
Total params: 1,511,035
Trainable params: 1,511,035
Non-trainable params: 0
_________________________________________________________________
{'loss': [… 'val_loss': [… =================================================================================

Sun Aug  9 14:08:56 2020_________________________________________________________________
Layer (type)                 Output Shape              Param #   
=================================================================
lambda_1 (Lambda)            (None, 66, 200, 3)        0         
_________________________________________________________________
conv2d_1 (Conv2D)            (None, 31, 98, 24)        1824      
_________________________________________________________________
conv2d_2 (Conv2D)            (None, 14, 47, 36)        21636     
_________________________________________________________________
conv2d_3 (Conv2D)            (None, 5, 22, 48)         43248     
_________________________________________________________________
conv2d_4 (Conv2D)            (None, 3, 20, 64)         27712     
_________________________________________________________________
conv2d_5 (Conv2D)            (None, 1, 18, 128)        73856     
_________________________________________________________________
flatten_1 (Flatten)          (None, 2304)              0         
_________________________________________________________________
dense_1 (Dense)              (None, 512)               1180160   
_________________________________________________________________
dense_2 (Dense)              (None, 256)               131328    
_________________________________________________________________
dropout_1 (Dropout)          (None, 256)               0         
_________________________________________________________________
dense_3 (Dense)              (None, 100)               25700     
_________________________________________________________________
dense_4 (Dense)              (None, 50)                5050      
_________________________________________________________________
dropout_2 (Dropout)          (None, 50)                0         
_________________________________________________________________
dense_5 (Dense)              (None, 10)                510       
_________________________________________________________________
dense_6 (Dense)              (None, 1)                 11        
=================================================================
Total params: 1,511,035
Trainable params: 1,511,035
Non-trainable params: 0
_________________________________________________________________
{'val_loss': [… 'loss': [… =================================================================================

Sun Aug  9 14:56:29 2020_________________________________________________________________
Layer (type)                 Output Shape              Param #   
=================================================================
lambda_1 (Lambda)            (None, 66, 200, 3)        0         
_________________________________________________________________
conv2d_1 (Conv2D)            (None, 31, 98, 24)        1824      
_________________________________________________________________
conv2d_2 (Conv2D)            (None, 14, 47, 36)        21636     
_________________________________________________________________
conv2d_3 (Conv2D)            (None, 5, 22, 48)         43248     
_________________________________________________________________
conv2d_4 (Conv2D)            (None, 3, 20, 64)         27712     
_________________________________________________________________
conv2d_5 (Conv2D)            (None, 1, 18, 128)        73856     
_________________________________________________________________
flatten_1 (Flatten)          (None, 2304)              0         
_________________________________________________________________
dense_1 (Dense)              (None, 512)               1180160   
_________________________________________________________________
dense_2 (Dense)              (None, 256)               131328    
_________________________________________________________________
dropout_1 (Dropout)          (None, 256)               0         
_________________________________________________________________
dense_3 (Dense)              (None, 100)               25700     
_________________________________________________________________
dense_4 (Dense)              (None, 50)                5050      
_________________________________________________________________
dropout_2 (Dropout)          (None, 50)                0         
_________________________________________________________________
dense_5 (Dense)              (None, 10)                510       
_________________________________________________________________
dense_6 (Dense)              (None, 1)                 11        
=================================================================
Total params: 1,511,035
Trainable params: 1,511,035
Non-trainable params: 0
_________________________________________________________________
{'loss': [0.382501015551885, 0.3526771823724111, 0.3367478778150347, 0.3128363194995456, 0.28983200566503736, 0.26784198740323384, 0.25024016049702963, 0.24296506694687736, 0.23510333043204412, 0.23028033967547948], 'val_loss': [0.48058233566177383, 0.3685706945585048, 0.3781193528418618, 0.49868599330671887, 0.3545329051114671, 0.4113465064741773, 0.35117802655533703, 0.5309847880329447, 0.4624598749392955, 0.5490372424697243]}
=================================================================================

Sun Aug  9 15:30:20 2020_________________________________________________________________
Layer (type)                 Output Shape              Param #   
=================================================================
lambda_1 (Lambda)            (None, 66, 200, 3)        0         
_________________________________________________________________
conv2d_1 (Conv2D)            (None, 31, 98, 24)        1824      
_________________________________________________________________
conv2d_2 (Conv2D)            (None, 14, 47, 36)        21636     
_________________________________________________________________
conv2d_3 (Conv2D)            (None, 5, 22, 48)         43248     
_________________________________________________________________
conv2d_4 (Conv2D)            (None, 3, 20, 64)         27712     
_________________________________________________________________
conv2d_5 (Conv2D)            (None, 1, 18, 128)        73856     
_________________________________________________________________
flatten_1 (Flatten)          (None, 2304)              0         
_________________________________________________________________
dense_1 (Dense)              (None, 512)               1180160   
_________________________________________________________________
dense_2 (Dense)              (None, 256)               131328    
_________________________________________________________________
dropout_1 (Dropout)          (None, 256)               0         
_________________________________________________________________
dense_3 (Dense)              (None, 100)               25700     
_________________________________________________________________
dense_4 (Dense)              (None, 50)                5050      
_________________________________________________________________
dropout_2 (Dropout)          (None, 50)                0         
_________________________________________________________________
dense_5 (Dense)              (None, 10)                510       
_________________________________________________________________
dense_6 (Dense)              (None, 1)                 11        
=================================================================
Total params: 1,511,035
Trainable params: 1,511,035
Non-trainable params: 0
_________________________________________________________________
{'val_loss': [0.4084363219303889, 0.3827820307903891, 0.356015719600062, 0.36089286199500087, 0.3686140042056389, 0.34989896437677787, 0.36438753868425006, 0.40307979804260113, 0.3441697717800718, 0.3825012209107895], 'loss': [0.3728019440703922, 0.36312714011934066, 0.3486473401705424, 0.33160032514995996, 0.30154110341601903, 0.27096352116266886, 0.24910252426995172, 0.22519253863758512, 0.22482114959292943, 0.2213517850504981]}
…
4180949727, 0.005444245543910397, 0.005402899998716182, 0.005382828069064352, 0.0053525216591027045, 0.005300245530654986, 0.005335122886010342]}
=================================================================================

Sun Aug  9 16:44:15 2020Sun Aug  9 16:47:09 2020Sun Aug  9 16:48:01 2020Sun Aug  9 17:35:43 2020Sun Aug  9 17:37:54 2020Sun Aug  9 17:40:10 2020_________________________________________________________________
Layer (type)                 Output Shape              Param #   
=================================================================
lambda_1 (Lambda)            (None, 66, 200, 3)        0         
_________________________________________________________________
conv2d_1 (Conv2D)            (None, 31, 98, 24)        1824      
_________________________________________________________________
conv2d_2 (Conv2D)            (None, 14, 47, 36)        21636     
_________________________________________________________________
conv2d_3 (Conv2D)            (None, 5, 22, 48)         43248     
_________________________________________________________________
conv2d_4 (Conv2D)            (None, 3, 20, 64)         27712     
_________________________________________________________________
conv2d_5 (Conv2D)            (None, 1, 18, 128)        73856     
_________________________________________________________________
flatten_1 (Flatten)          (None, 2304)              0         
_________________________________________________________________
dense_1 (Dense)              (None, 512)               1180160   
_________________________________________________________________
dense_2 (Dense)              (None, 256)               131328    
_________________________________________________________________
dropout_1 (Dropout)          (None, 256)               0         
_________________________________________________________________
dense_3 (Dense)              (None, 100)               25700     
_________________________________________________________________
dense_4 (Dense)              (None, 50)                5050      
_________________________________________________________________
dropout_2 (Dropout)          (None, 50)                0         
_________________________________________________________________
dense_5 (Dense)              (None, 10)                510       
_________________________________________________________________
dense_6 (Dense)              (None, 1)                 11        
=================================================================
Total params: 1,511,035
Trainable params: 1,511,035
Non-trainable params: 0
_________________________________________________________________
Sun Aug  9 17:43:30 2020_________________________________________________________________
Layer (type)                 Output Shape              Param #   
=================================================================
lambda_1 (Lambda)            (None, 66, 200, 3)        0         
_________________________________________________________________
conv2d_1 (Conv2D)            (None, 31, 98, 24)        1824      
_________________________________________________________________
conv2d_2 (Conv2D)            (None, 14, 47, 36)        21636     
_________________________________________________________________
conv2d_3 (Conv2D)            (None, 5, 22, 48)         43248     
_________________________________________________________________
conv2d_4 (Conv2D)            (None, 3, 20, 64)         27712     
_________________________________________________________________
conv2d_5 (Conv2D)            (None, 1, 18, 128)        73856     
_________________________________________________________________
flatten_1 (Flatten)          (None, 2304)              0         
_________________________________________________________________
dense_1 (Dense)              (None, 512)               1180160   
_________________________________________________________________
dense_2 (Dense)              (None, 256)               131328    
_________________________________________________________________
dropout_1 (Dropout)          (None, 256)               0         
_________________________________________________________________
dense_3 (Dense)              (None, 100)               25700     
_________________________________________________________________
dense_4 (Dense)              (None, 50)                5050      
_________________________________________________________________
dropout_2 (Dropout)          (None, 50)                0         
_________________________________________________________________
dense_5 (Dense)              (None, 10)                510       
_________________________________________________________________
dense_6 (Dense)              (None, 1)                 11        
=================================================================
Total params: 1,511,035
Trainable params: 1,511,035
Non-trainable params: 0
_________________________________________________________________
Sun Aug  9 17:45:27 2020Sun Aug  9 17:50:16 2020Sun Aug  9 17:52:45 2020Sun Aug  9 17:53:14 2020_________________________________________________________________
Layer (type)                 Output Shape              Param #   
=================================================================
lambda_1 (Lambda)            (None, 66, 200, 3)        0         
_________________________________________________________________
conv2d_1 (Conv2D)            (None, 31, 98, 24)        1824      
_________________________________________________________________
conv2d_2 (Conv2D)            (None, 14, 47, 36)        21636     
_________________________________________________________________
conv2d_3 (Conv2D)            (None, 5, 22, 48)         43248     
_________________________________________________________________
conv2d_4 (Conv2D)            (None, 3, 20, 64)         27712     
_________________________________________________________________
conv2d_5 (Conv2D)            (None, 1, 18, 128)        73856     
_________________________________________________________________
flatten_1 (Flatten)          (None, 2304)              0         
_________________________________________________________________
dense_1 (Dense)              (None, 512)               1180160   
_________________________________________________________________
dense_2 (Dense)              (None, 256)               131328    
_________________________________________________________________
dropout_1 (Dropout)          (None, 256)               0         
_________________________________________________________________
dense_3 (Dense)              (None, 100)               25700     
_________________________________________________________________
dense_4 (Dense)              (None, 50)                5050      
_________________________________________________________________
dropout_2 (Dropout)          (None, 50)                0         
_________________________________________________________________
dense_5 (Dense)              (None, 10)                510       
_________________________________________________________________
dense_6 (Dense)              (None, 1)                 11        
=================================================================
Total params: 1,511,035
Trainable params: 1,511,035
Non-trainable params: 0
_________________________________________________________________
{'loss': [… 'val_loss': [… =================================================================================

Sun Aug  9 18:09:56 2020_________________________________________________________________
Layer (type)                 Output Shape              Param #   
=================================================================
lambda_1 (Lambda)            (None, 66, 200, 3)        0         
_________________________________________________________________
conv2d_1 (Conv2D)            (None, 31, 98, 24)        1824      
_________________________________________________________________
conv2d_2 (Conv2D)            (None, 14, 47, 36)        21636     
_________________________________________________________________
conv2d_3 (Conv2D)            (None, 5, 22, 48)         43248     
_________________________________________________________________
conv2d_4 (Conv2D)            (None, 3, 20, 64)         27712     
_________________________________________________________________
conv2d_5 (Conv2D)            (None, 1, 18, 128)        73856     
_________________________________________________________________
flatten_1 (Flatten)          (None, 2304)              0         
_________________________________________________________________
dense_1 (Dense)              (None, 512)               1180160   
_________________________________________________________________
dense_2 (Dense)              (None, 256)               131328    
_________________________________________________________________
dropout_1 (Dropout)          (None, 256)               0         
_________________________________________________________________
dense_3 (Dense)              (None, 100)               25700     
_________________________________________________________________
dense_4 (Dense)              (None, 50)                5050      
_________________________________________________________________
dropout_2 (Dropout)          (None, 50)                0         
_________________________________________________________________
dense_5 (Dense)              (None, 10)                510       
_________________________________________________________________
dense_6 (Dense)              (None, 1)                 11        
=================================================================
Total params: 1,511,035
Trainable params: 1,511,035
Non-trainable params: 0
_________________________________________________________________
{'loss': [… 'val_loss': [… =================================================================================

Sun Aug  9 18:26:29 2020_________________________________________________________________
Layer (type)                 Output Shape              Param #   
=================================================================
lambda_1 (Lambda)            (None, 66, 200, 3)        0         
_________________________________________________________________
conv2d_1 (Conv2D)            (None, 31, 98, 24)        1824      
_________________________________________________________________
conv2d_2 (Conv2D)            (None, 14, 47, 36)        21636     
_________________________________________________________________
conv2d_3 (Conv2D)            (None, 5, 22, 48)         43248     
_________________________________________________________________
conv2d_4 (Conv2D)            (None, 3, 20, 64)         27712     
_________________________________________________________________
conv2d_5 (Conv2D)            (None, 1, 18, 128)        73856     
_________________________________________________________________
flatten_1 (Flatten)          (None, 2304)              0         
_________________________________________________________________
dense_1 (Dense)              (None, 512)               1180160   
_________________________________________________________________
dense_2 (Dense)              (None, 256)               131328    
_________________________________________________________________
dropout_1 (Dropout)          (None, 256)               0         
_________________________________________________________________
dense_3 (Dense)              (None, 100)               25700     
_________________________________________________________________
dense_4 (Dense)              (None, 50)                5050      
_________________________________________________________________
dropout_2 (Dropout)          (None, 50)                0         
_________________________________________________________________
dense_5 (Dense)              (None, 10)                510       
_________________________________________________________________
dense_6 (Dense)              (None, 1)                 11        
=================================================================
Total params: 1,511,035
Trainable params: 1,511,035
Non-trainable params: 0
_________________________________________________________________
{'loss': [… 'val_loss': [… =================================================================================

Sun Aug  9 18:45:37 2020Sun Aug  9 18:46:00 2020_________________________________________________________________
Layer (type)                 Output Shape              Param #   
=================================================================
lambda_1 (Lambda)            (None, 66, 200, 3)        0         
_________________________________________________________________
conv2d_1 (Conv2D)            (None, 31, 98, 24)        1824      
_________________________________________________________________
conv2d_2 (Conv2D)            (None, 14, 47, 36)        21636     
_________________________________________________________________
conv2d_3 (Conv2D)            (None, 5, 22, 48)         43248     
_________________________________________________________________
conv2d_4 (Conv2D)            (None, 3, 20, 64)         27712     
_________________________________________________________________
conv2d_5 (Conv2D)            (None, 1, 18, 128)        73856     
_________________________________________________________________
flatten_1 (Flatten)          (None, 2304)              0         
_________________________________________________________________
dense_1 (Dense)              (None, 512)               1180160   
_________________________________________________________________
dense_2 (Dense)              (None, 256)               131328    
_________________________________________________________________
dropout_1 (Dropout)          (None, 256)               0         
_________________________________________________________________
dense_3 (Dense)              (None, 100)               25700     
_________________________________________________________________
dense_4 (Dense)              (None, 50)                5050      
_________________________________________________________________
dropout_2 (Dropout)          (None, 50)                0         
_________________________________________________________________
dense_5 (Dense)              (None, 10)                510       
_________________________________________________________________
dense_6 (Dense)              (None, 1)                 11        
=================================================================
Total params: 1,511,035
Trainable params: 1,511,035
Non-trainable params: 0
_________________________________________________________________
{'loss': [… 'val_loss': [… =================================================================================

Mon Aug 10 12:45:10 2020_________________________________________________________________
Layer (type)                 Output Shape              Param #   
=================================================================
lambda_1 (Lambda)            (None, 66, 200, 3)        0         
_________________________________________________________________
conv2d_1 (Conv2D)            (None, 31, 98, 24)        1824      
_________________________________________________________________
conv2d_2 (Conv2D)            (None, 14, 47, 36)        21636     
_________________________________________________________________
conv2d_3 (Conv2D)            (None, 5, 22, 48)         43248     
_________________________________________________________________
conv2d_4 (Conv2D)            (None, 3, 20, 64)         27712     
_________________________________________________________________
conv2d_5 (Conv2D)            (None, 1, 18, 128)        73856     
_________________________________________________________________
flatten_1 (Flatten)          (None, 2304)              0         
_________________________________________________________________
dense_1 (Dense)              (None, 512)               1180160   
_________________________________________________________________
dense_2 (Dense)              (None, 256)               131328    
_________________________________________________________________
dropout_1 (Dropout)          (None, 256)               0         
_________________________________________________________________
dense_3 (Dense)              (None, 100)               25700     
_________________________________________________________________
dense_4 (Dense)              (None, 50)                5050      
_________________________________________________________________
dropout_2 (Dropout)          (None, 50)                0         
_________________________________________________________________
dense_5 (Dense)              (None, 10)                510       
_________________________________________________________________
dense_6 (Dense)              (None, 1)                 11        
=================================================================
Total params: 1,511,035
Trainable params: 1,511,035
Non-trainable params: 0
_________________________________________________________________
{'loss': [… 'val_loss': [… =================================================================================

Mon Aug 10 12:55:51 2020_________________________________________________________________
Layer (type)                 Output Shape              Param #   
=================================================================
lambda_1 (Lambda)            (None, 66, 200, 3)        0         
_________________________________________________________________
conv2d_1 (Conv2D)            (None, 31, 98, 24)        1824      
_________________________________________________________________
conv2d_2 (Conv2D)            (None, 14, 47, 36)        21636     
_________________________________________________________________
conv2d_3 (Conv2D)            (None, 5, 22, 48)         43248     
_________________________________________________________________
conv2d_4 (Conv2D)            (None, 3, 20, 64)         27712     
_________________________________________________________________
conv2d_5 (Conv2D)            (None, 1, 18, 128)        73856     
_________________________________________________________________
flatten_1 (Flatten)          (None, 2304)              0         
_________________________________________________________________
dense_1 (Dense)              (None, 512)               1180160   
_________________________________________________________________
dense_2 (Dense)              (None, 256)               131328    
_________________________________________________________________
dropout_1 (Dropout)          (None, 256)               0         
_________________________________________________________________
dense_3 (Dense)              (None, 100)               25700     
_________________________________________________________________
dense_4 (Dense)              (None, 50)                5050      
_________________________________________________________________
dropout_2 (Dropout)          (None, 50)                0         
_________________________________________________________________
dense_5 (Dense)              (None, 10)                510       
_________________________________________________________________
dense_6 (Dense)              (None, 1)                 11        
=================================================================
Total params: 1,511,035
Trainable params: 1,511,035
Non-trainable params: 0
_________________________________________________________________
{'loss': [… 'val_loss': [… =================================================================================

Mon Aug 10 13:07:58 2020_________________________________________________________________
Layer (type)                 Output Shape              Param #   
=================================================================
lambda_1 (Lambda)            (None, 66, 200, 3)        0         
_________________________________________________________________
conv2d_1 (Conv2D)            (None, 31, 98, 24)        1824      
_________________________________________________________________
conv2d_2 (Conv2D)            (None, 14, 47, 36)        21636     
_________________________________________________________________
conv2d_3 (Conv2D)            (None, 5, 22, 48)         43248     
_________________________________________________________________
conv2d_4 (Conv2D)            (None, 3, 20, 64)         27712     
_________________________________________________________________
conv2d_5 (Conv2D)            (None, 1, 18, 128)        73856     
_________________________________________________________________
flatten_1 (Flatten)          (None, 2304)              0         
_________________________________________________________________
dense_1 (Dense)              (None, 512)               1180160   
_________________________________________________________________
dense_2 (Dense)              (None, 256)               131328    
_________________________________________________________________
dropout_1 (Dropout)          (None, 256)               0         
_________________________________________________________________
dense_3 (Dense)              (None, 100)               25700     
_________________________________________________________________
dense_4 (Dense)              (None, 50)                5050      
_________________________________________________________________
dropout_2 (Dropout)          (None, 50)                0         
_________________________________________________________________
dense_5 (Dense)              (None, 10)                510       
_________________________________________________________________
dense_6 (Dense)              (None, 1)                 11        
=================================================================
Total params: 1,511,035
Trainable params: 1,511,035
Non-trainable params: 0
_________________________________________________________________
{'val_loss': [0.002311932285242316, 0.0023842988194772616, 0.0023533293943290533, 0.0023137642162537556, 0.0023207004360067773, 0.0023144104279516314, 0.0023118167702199013, 0.0023120
…
{'loss': [0.019597489049037298, 0.018645777683787876, 0.0181640734112925, 0.01804750926527712, 0.017807523528734843, 0.01769295268257459, 0.017692004472017287, 0.017628114611903827], 'val_loss': [0.018227814622563305, 0.018117423366704258, 0.017994976108828085, 0.017860672944999864, 0.01792142386515387, 0.01789703105403669, 0.017946159539721854, 0.017766277027273514]}
=================================================================================

Mon Aug 10 13:58:19 2020_________________________________________________________________
Layer (type)                 Output Shape              Param #   
=================================================================
lambda_1 (Lambda)            (None, 66, 200, 3)        0         
_________________________________________________________________
conv2d_1 (Conv2D)            (None, 31, 98, 24)        1824      
_________________________________________________________________
conv2d_2 (Conv2D)            (None, 14, 47, 36)        21636     
_________________________________________________________________
conv2d_3 (Conv2D)            (None, 5, 22, 48)         43248     
_________________________________________________________________
conv2d_4 (Conv2D)            (None, 3, 20, 64)         27712     
_________________________________________________________________
conv2d_5 (Conv2D)            (None, 1, 18, 128)        73856     
_________________________________________________________________
flatten_1 (Flatten)          (None, 2304)              0         
_________________________________________________________________
dense_1 (Dense)              (None, 512)               1180160   
_________________________________________________________________
dense_2 (Dense)              (None, 256)               131328    
_________________________________________________________________
dropout_1 (Dropout)          (None, 256)               0         
_________________________________________________________________
dense_3 (Dense)              (None, 100)               25700     
_________________________________________________________________
dense_4 (Dense)              (None, 50)                5050      
_________________________________________________________________
dropout_2 (Dropout)          (None, 50)                0         
_________________________________________________________________
dense_5 (Dense)              (None, 10)                510       
_________________________________________________________________
dense_6 (Dense)              (None, 1)                 11        
=================================================================
Total params: 1,511,035
Trainable params: 1,511,035
Non-trainable params: 0
_________________________________________________________________
{'val_loss': [0.05455514025414376, 0.053928399852533795, 0.05173193934759452, 0.050827256649924185, 0.04993060499210295], 'loss': [0.0506691844397121, 0.04714324672420819, 0.047470753280321756, 0.046799504481421575, 0.04615882383187612]}
=================================================================================

Mon Aug 10 15:29:19 2020_________________________________________________________________
Layer (type)                 Output Shape              Param #   
=================================================================
lambda_1 (Lambda)            (None, 66, 200, 3)        0         
_________________________________________________________________
conv2d_1 (Conv2D)            (None, 31, 98, 24)        1824      
_________________________________________________________________
conv2d_2 (Conv2D)            (None, 14, 47, 36)        21636     
_________________________________________________________________
conv2d_3 (Conv2D)            (None, 5, 22, 48)         43248     
_________________________________________________________________
conv2d_4 (Conv2D)            (None, 3, 20, 64)         27712     
_________________________________________________________________
conv2d_5 (Conv2D)            (None, 1, 18, 128)        73856     
_________________________________________________________________
flatten_1 (Flatten)          (None, 2304)              0         
_________________________________________________________________
dense_1 (Dense)              (None, 512)               1180160   
_________________________________________________________________
dense_2 (Dense)              (None, 256)               131328    
_________________________________________________________________
dropout_1 (Dropout)          (None, 256)               0         
_________________________________________________________________
dense_3 (Dense)              (None, 100)               25700     
_________________________________________________________________
dense_4 (Dense)              (None, 50)                5050      
_________________________________________________________________
dropout_2 (Dropout)          (None, 50)                0         
_________________________________________________________________
dense_5 (Dense)              (None, 10)                510       
_________________________________________________________________
dense_6 (Dense)              (None, 1)                 11        
=================================================================
Total params: 1,511,035
Trainable params: 1,511,035
Non-trainable params: 0
_________________________________________________________________
{'loss': [0.05268886575831307, 0.049733939022488065, 0.04912691215078036, 0.048377934822771286, 0.04794690220355988], 'val_loss': [0.05490068687734046, 0.05461568574794641, 0.05242961790985905, 0.05222048558223698, 0.05181373939171514]}
=================================================================================

Mon Aug 10 15:34:16 2020_________________________________________________________________
Layer (type)                 Output Shape              Param #   
=================================================================
lambda_1 (Lambda)            (None, 66, 200, 3)        0         
_________________________________________________________________
conv2d_1 (Conv2D)            (None, 31, 98, 24)        1824      
_________________________________________________________________
conv2d_2 (Conv2D)            (None, 14, 47, 36)        21636     
_________________________________________________________________
conv2d_3 (Conv2D)            (None, 5, 22, 48)         43248     
_________________________________________________________________
conv2d_4 (Conv2D)            (None, 3, 20, 64)         27712     
_________________________________________________________________
conv2d_5 (Conv2D)            (None, 1, 18, 128)        73856     
_________________________________________________________________
flatten_1 (Flatten)          (None, 2304)              0         
_________________________________________________________________
dense_1 (Dense)              (None, 512)               1180160   
_________________________________________________________________
dense_2 (Dense)              (None, 256)               131328    
_________________________________________________________________
dropout_1 (Dropout)          (None, 256)               0         
_________________________________________________________________
dense_3 (Dense)              (None, 100)               25700     
_________________________________________________________________
dense_4 (Dense)              (None, 50)                5050      
_________________________________________________________________
dropout_2 (Dropout)          (None, 50)                0         
_________________________________________________________________
dense_5 (Dense)              (None, 10)                510       
_________________________________________________________________
dense_6 (Dense)              (None, 1)                 11        
=================================================================
Total params: 1,511,035
Trainable params: 1,511,035
Non-trainable params: 0
_________________________________________________________________
{'val_loss': [0.007022307961659878, 0.006889616273441485, 0.007022307961659878, 0.006083971859496326, 0.005822408490681774], 'loss': [0.006310791445109579, 0.006299220936828189, 0.006260516826146179, 0.006117955636233091, 0.0056107435579929085]}
=================================================================================

Mon Aug 10 15:52:13 2020_________________________________________________________________
Layer (type)                 Output Shape              Param #   
=================================================================
lambda_1 (Lambda)            (None, 66, 200, 3)        0         
_________________________________________________________________
conv2d_1 (Conv2D)            (None, 31, 98, 24)        1824      
_________________________________________________________________
conv2d_2 (Conv2D)            (None, 14, 47, 36)        21636     
_________________________________________________________________
conv2d_3 (Conv2D)            (None, 5, 22, 48)         43248     
_________________________________________________________________
conv2d_4 (Conv2D)            (None, 3, 20, 64)         27712     
_________________________________________________________________
conv2d_5 (Conv2D)            (None, 1, 18, 128)        73856     
_________________________________________________________________
flatten_1 (Flatten)          (None, 2304)              0         
_________________________________________________________________
dense_1 (Dense)              (None, 512)               1180160   
_________________________________________________________________
dense_2 (Dense)              (None, 256)               131328    
_________________________________________________________________
dropout_1 (Dropout)          (None, 256)               0         
_________________________________________________________________
dense_3 (Dense)              (None, 100)               25700     
_________________________________________________________________
dense_4 (Dense)              (None, 50)                5050      
_________________________________________________________________
dropout_2 (Dropout)          (None, 50)                0         
_________________________________________________________________
dense_5 (Dense)              (None, 10)                510       
_________________________________________________________________
dense_6 (Dense)              (None, 1)                 11        
=================================================================
Total params: 1,511,035
Trainable params: 1,511,035
Non-trainable params: 0
_________________________________________________________________
{'val_loss': [0.006089651853051647, 0.006089651853051647, 0.006089651853051647, 0.006089651853051647, 0.006089651853051647], 'loss': [0.006780748988812168, 0.006712708292735948, 0.006722545924265352, 0.006732820308374034, 0.006689826223585341]}
=================================================================================

Mon Aug 10 16:20:25 2020_________________________________________________________________
Layer (type)                 Output Shape              Param #   
=================================================================
lambda_1 (Lambda)            (None, 66, 200, 3)        0         
_________________________________________________________________
conv2d_1 (Conv2D)            (None, 31, 98, 24)        1824      
_________________________________________________________________
conv2d_2 (Conv2D)            (None, 14, 47, 36)        21636     
_________________________________________________________________
conv2d_3 (Conv2D)            (None, 5, 22, 48)         43248     
_________________________________________________________________
conv2d_4 (Conv2D)            (None, 3, 20, 64)         27712     
_________________________________________________________________
conv2d_5 (Conv2D)            (None, 1, 18, 128)        73856     
_________________________________________________________________
flatten_1 (Flatten)          (None, 2304)              0         
_________________________________________________________________
dense_1 (Dense)              (None, 512)               1180160   
_________________________________________________________________
dense_2 (Dense)              (None, 256)               131328    
_________________________________________________________________
dropout_1 (Dropout)          (None, 256)               0         
_________________________________________________________________
dense_3 (Dense)              (None, 100)               25700     
_________________________________________________________________
dense_4 (Dense)              (None, 50)                5050      
_________________________________________________________________
dropout_2 (Dropout)          (None, 50)                0         
_________________________________________________________________
dense_5 (Dense)              (None, 10)                510       
_________________________________________________________________
dense_6 (Dense)              (None, 1)                 11        
=================================================================
Total params: 1,511,035
Trainable params: 1,511,035
Non-trainable params: 0
_________________________________________________________________
{'val_loss': [0.00629380766332477, 0.006194827225774276, 0.005806282442188634, 0.0056378020793806, 0.005479189234583711], 'loss': [0.0071679967834717695, 0.006456622045404381, 0.006009668313463529, 0.005801116248634127, 0.005763865795234839]}
=================================================================================

Mon Aug 10 16:30:15 2020_________________________________________________________________
Layer (type)                 Output Shape              Param #   
=================================================================
lambda_1 (Lambda)            (None, 66, 200, 3)        0         
_________________________________________________________________
conv2d_1 (Conv2D)            (None, 31, 98, 24)        1824      
_________________________________________________________________
conv2d_2 (Conv2D)            (None, 14, 47, 36)        21636     
_________________________________________________________________
conv2d_3 (Conv2D)            (None, 5, 22, 48)         43248     
_________________________________________________________________
conv2d_4 (Conv2D)            (None, 3, 20, 64)         27712     
_________________________________________________________________
conv2d_5 (Conv2D)            (None, 1, 18, 64)         36928     
_________________________________________________________________
flatten_1 (Flatten)          (None, 1152)              0         
_________________________________________________________________
dense_1 (Dense)              (None, 1164)              1342092   
_________________________________________________________________
dense_2 (Dense)              (None, 100)               116500    
_________________________________________________________________
dense_3 (Dense)              (None, 50)                5050      
_________________________________________________________________
dropout_1 (Dropout)          (None, 50)                0         
_________________________________________________________________
dense_4 (Dense)              (None, 10)                510       
_________________________________________________________________
dense_5 (Dense)              (None, 1)                 11        
=================================================================
Total params: 1,595,511
Trainable params: 1,595,511
Non-trainable params: 0
_________________________________________________________________
{'loss': [0.017945844049586192, 0.01664898951475819, 0.016553313378161853, 0.016467667277654013, 0.016402877834439278], 'val_loss': [0.016801022501505544, 0.0168004003641196, 0.01679341111383167, 0.016794491154444955, 0.016795622986791194]}
=================================================================================

Mon Aug 10 16:37:31 2020_________________________________________________________________
Layer (type)                 Output Shape              Param #   
=================================================================
lambda_1 (Lambda)            (None, 66, 200, 3)        0         
_________________________________________________________________
conv2d_1 (Conv2D)            (None, 31, 98, 24)        1824      
_________________________________________________________________
conv2d_2 (Conv2D)            (None, 14, 47, 36)        21636     
_________________________________________________________________
conv2d_3 (Conv2D)            (None, 5, 22, 48)         43248     
_________________________________________________________________
conv2d_4 (Conv2D)            (None, 3, 20, 64)         27712     
_________________________________________________________________
conv2d_5 (Conv2D)            (None, 1, 18, 64)         36928     
_________________________________________________________________
flatten_1 (Flatten)          (None, 1152)              0         
_________________________________________________________________
dense_1 (Dense)              (None, 1164)              1342092   
_________________________________________________________________
dense_2 (Dense)              (None, 100)               116500    
_________________________________________________________________
dense_3 (Dense)              (None, 50)                5050      
_________________________________________________________________
dropout_1 (Dropout)          (None, 50)                0         
_________________________________________________________________
dense_4 (Dense)              (None, 10)                510       
_________________________________________________________________
dense_5 (Dense)              (None, 1)                 11        
=================================================================
Total params: 1,595,511
Trainable params: 1,595,511
Non-trainable params: 0
_________________________________________________________________
{'val_loss': [0.017173676035389742, 0.017170959088544983, 0.017180629514547144, 0.017173067518258457, 0.01718831978574525], 'loss': [0.016595853166944452, 0.01637213710207078, 0.01636175596929259, 0.01631451429327329, 0.015976461683048143]}
=================================================================================

Mon Aug 10 16:43:04 2020_________________________________________________________________
Layer (type)                 Output Shape              Param #   
=================================================================
lambda_1 (Lambda)            (None, 66, 200, 3)        0         
_________________________________________________________________
conv2d_1 (Conv2D)            (None, 31, 98, 24)        1824      
_________________________________________________________________
conv2d_2 (Conv2D)            (None, 14, 47, 36)        21636     
_________________________________________________________________
conv2d_3 (Conv2D)            (None, 5, 22, 48)         43248     
_________________________________________________________________
conv2d_4 (Conv2D)            (None, 3, 20, 64)         27712     
_________________________________________________________________
conv2d_5 (Conv2D)            (None, 1, 18, 64)         36928     
_________________________________________________________________
flatten_1 (Flatten)          (None, 1152)              0         
_________________________________________________________________
dense_1 (Dense)              (None, 1164)              1342092   
_________________________________________________________________
dense_2 (Dense)              (None, 100)               116500    
_________________________________________________________________
dense_3 (Dense)              (None, 50)                5050      
_________________________________________________________________
dropout_1 (Dropout)          (None, 50)                0         
_________________________________________________________________
dense_4 (Dense)              (None, 10)                510       
_________________________________________________________________
dense_5 (Dense)              (None, 1)                 11        
=================================================================
Total params: 1,595,511
Trainable params: 1,595,511
Non-trainable params: 0
_________________________________________________________________
{'val_loss': [0.015985507711193364, 0.015985010686237405, 0.016004117683181867, 0.015988865503380776, 0.015987031330203474], 'loss': [0.017175302035941017, 0.016900656044069262, 0.01686308421459463, 0.01677221005724536, 0.01678599416265885]}
=================================================================================

Mon Aug 10 16:48:34 2020_________________________________________________________________
Layer (type)                 Output Shape              Param #   
=================================================================
lambda_1 (Lambda)            (None, 66, 200, 3)        0         
_________________________________________________________________
conv2d_1 (Conv2D)            (None, 31, 98, 24)        1824      
_________________________________________________________________
conv2d_2 (Conv2D)            (None, 14, 47, 36)        21636     
_________________________________________________________________
conv2d_3 (Conv2D)            (None, 5, 22, 48)         43248     
_________________________________________________________________
conv2d_4 (Conv2D)            (None, 3, 20, 64)         27712     
_________________________________________________________________
conv2d_5 (Conv2D)            (None, 1, 18, 64)         36928     
_________________________________________________________________
flatten_1 (Flatten)          (None, 1152)              0         
_________________________________________________________________
dense_1 (Dense)              (None, 1164)              1342092   
_________________________________________________________________
dense_2 (Dense)              (None, 100)               116500    
_________________________________________________________________
dense_3 (Dense)              (None, 50)                5050      
_________________________________________________________________
dropout_1 (Dropout)          (None, 50)                0         
_________________________________________________________________
dense_4 (Dense)              (None, 10)                510       
_________________________________________________________________
dense_5 (Dense)              (None, 1)                 11        
=================================================================
Total params: 1,595,511
Trainable params: 1,595,511
Non-trainable params: 0
_________________________________________________________________
{'val_loss': [0.07991611784650843, 0.07993295950848302, 0.07992385246542567, 0.07999291636006484, 0.0799637291208064], 'loss': [0.08040957911014557, 0.07938210587501526, 0.07932090973986519, 0.07934421234793133, 0.07931659580071768]}
=================================================================================

Mon Aug 10 16:58:22 2020_________________________________________________________________
Layer (type)                 Output Shape              Param #   
=================================================================
conv2d_1 (Conv2D)            (None, 31, 98, 24)        1824      
_________________________________________________________________
conv2d_2 (Conv2D)            (None, 14, 47, 36)        21636     
_________________________________________________________________
conv2d_3 (Conv2D)            (None, 5, 22, 48)         43248     
_________________________________________________________________
conv2d_4 (Conv2D)            (None, 3, 20, 64)         27712     
_________________________________________________________________
conv2d_5 (Conv2D)            (None, 1, 18, 64)         36928     
_________________________________________________________________
flatten_1 (Flatten)          (None, 1152)              0         
_________________________________________________________________
dense_1 (Dense)              (None, 1164)              1342092   
_________________________________________________________________
dense_2 (Dense)              (None, 100)               116500    
_________________________________________________________________
dense_3 (Dense)              (None, 50)                5050      
_________________________________________________________________
dropout_1 (Dropout)          (None, 50)                0         
_________________________________________________________________
dense_4 (Dense)              (None, 10)                510       
_________________________________________________________________
dense_5 (Dense)              (None, 1)                 11        
=================================================================
Total params: 1,595,511
Trainable params: 1,595,511
Non-trainable params: 0
_________________________________________________________________
{'val_loss': [1.2465686096476588e-05, 1.4142368343520987e-05, 1.6658612255977364e-05, 1.790905943305426e-05, 1.7559378545773604e-05], 'loss': [134325.62523579405, 6.445326083374024, 3.0910008133676317, 2.382858714252048, 2.077764565248177]}
=================================================================================

Mon Aug 10 17:42:56 2020_________________________________________________________________
Layer (type)                 Output Shape              Param #   
=================================================================
lambda_1 (Lambda)            (None, 66, 200, 3)        0         
_________________________________________________________________
conv2d_1 (Conv2D)            (None, 31, 98, 24)        1824      
_________________________________________________________________
conv2d_2 (Conv2D)            (None, 14, 47, 36)        21636     
_________________________________________________________________
conv2d_3 (Conv2D)            (None, 5, 22, 48)         43248     
_________________________________________________________________
conv2d_4 (Conv2D)            (None, 3, 20, 64)         27712     
_________________________________________________________________
conv2d_5 (Conv2D)            (None, 1, 18, 64)         36928     
_________________________________________________________________
flatten_1 (Flatten)          (None, 1152)              0         
_________________________________________________________________
dense_1 (Dense)              (None, 1164)              1342092   
_________________________________________________________________
dense_2 (Dense)              (None, 100)               116500    
_________________________________________________________________
dense_3 (Dense)              (None, 50)                5050      
_________________________________________________________________
dropout_1 (Dropout)          (None, 50)                0         
_________________________________________________________________
dense_4 (Dense)              (None, 10)                510       
_________________________________________________________________
dense_5 (Dense)              (None, 1)                 11        
=================================================================
Total params: 1,595,511
Trainable params: 1,595,511
Non-trainable params: 0
_________________________________________________________________
{'val_loss': [6.461347544579123e-05, 6.346970664211543e-05, 6.0721628072106466e-05, 5.616336960078925e-05, 5.789114371575278e-05], 'loss': [293.4771883296686, 0.0001953379016343711, 0.0001294458952680644, 0.0017271051500471206, 0.0010386912043361615]}
=================================================================================

Mon Aug 10 17:50:21 2020_________________________________________________________________
Layer (type)                 Output Shape              Param #   
=================================================================
lambda_1 (Lambda)            (None, 66, 200, 3)        0         
_________________________________________________________________
conv2d_1 (Conv2D)            (None, 31, 98, 24)        1824      
_________________________________________________________________
conv2d_2 (Conv2D)            (None, 14, 47, 36)        21636     
_________________________________________________________________
conv2d_3 (Conv2D)            (None, 5, 22, 48)         43248     
_________________________________________________________________
conv2d_4 (Conv2D)            (None, 3, 20, 64)         27712     
_________________________________________________________________
conv2d_5 (Conv2D)            (None, 1, 18, 64)         36928     
_________________________________________________________________
flatten_1 (Flatten)          (None, 1152)              0         
_________________________________________________________________
dense_1 (Dense)              (None, 1164)              1342092   
_________________________________________________________________
dense_2 (Dense)              (None, 100)               116500    
_________________________________________________________________
dense_3 (Dense)              (None, 50)                5050      
_________________________________________________________________
dropout_1 (Dropout)          (None, 50)                0         
_________________________________________________________________
dense_4 (Dense)              (None, 10)                510       
_________________________________________________________________
dense_5 (Dense)              (None, 1)                 11        
=================================================================
Total params: 1,595,511
Trainable params: 1,595,511
Non-trainable params: 0
_________________________________________________________________
Mon Aug 10 17:52:47 2020_________________________________________________________________
Layer (type)                 Output Shape              Param #   
=================================================================
lambda_1 (Lambda)            (None, 66, 200, 3)        0         
_________________________________________________________________
conv2d_1 (Conv2D)            (None, 31, 98, 24)        1824      
_________________________________________________________________
conv2d_2 (Conv2D)            (None, 14, 47, 36)        21636     
_________________________________________________________________
conv2d_3 (Conv2D)            (None, 5, 22, 48)         43248     
_________________________________________________________________
conv2d_4 (Conv2D)            (None, 3, 20, 64)         27712     
_________________________________________________________________
conv2d_5 (Conv2D)            (None, 1, 18, 64)         36928     
_________________________________________________________________
flatten_1 (Flatten)          (None, 1152)              0         
_________________________________________________________________
dense_1 (Dense)              (None, 1164)              1342092   
_________________________________________________________________
dense_2 (Dense)              (None, 100)               116500    
_________________________________________________________________
dense_3 (Dense)              (None, 50)                5050      
_________________________________________________________________
dropout_1 (Dropout)          (None, 50)                0         
_________________________________________________________________
dense_4 (Dense)              (None, 10)                510       
_________________________________________________________________
dense_5 (Dense)              (None, 1)                 11        
=================================================================
Total params: 1,595,511
Trainable params: 1,595,511
Non-trainable params: 0
_________________________________________________________________
Mon Aug 10 17:58:23 2020_________________________________________________________________
Layer (type)                 Output Shape              Param #   
=================================================================
lambda_1 (Lambda)            (None, 66, 200, 3)        0         
_________________________________________________________________
conv2d_1 (Conv2D)            (None, 31, 98, 24)        1824      
_________________________________________________________________
conv2d_2 (Conv2D)            (None, 14, 47, 36)        21636     
_________________________________________________________________
conv2d_3 (Conv2D)            (None, 5, 22, 48)         43248     
_________________________________________________________________
conv2d_4 (Conv2D)            (None, 3, 20, 64)         27712     
_________________________________________________________________
conv2d_5 (Conv2D)            (None, 1, 18, 64)         36928     
_________________________________________________________________
flatten_1 (Flatten)          (None, 1152)              0         
_________________________________________________________________
dense_1 (Dense)              (None, 1164)              1342092   
_________________________________________________________________
dense_2 (Dense)              (None, 100)               116500    
_________________________________________________________________
dense_3 (Dense)              (None, 50)                5050      
_________________________________________________________________
dropout_1 (Dropout)          (None, 50)                0         
_________________________________________________________________
dense_4 (Dense)              (None, 10)                510       
_________________________________________________________________
dense_5 (Dense)              (None, 1)                 11        
=================================================================
Total params: 1,595,511
Trainable params: 1,595,511
Non-trainable params: 0
_________________________________________________________________
{'loss': [71.07480106896294, 0.5194189754009246, 0.137765927139918, 0.04433037499321832, 0.020421997126440206], 'val_loss': [2.2344259059857494e-06, 3.416059168426797e-06, 4.509418829716334e-06, 4.095909401882879e-06, 3.693602965503431e-06], 'lr': [1e-04, 1e-04, 1e-04, 1e-04, 1e-04]}
=================================================================================

Mon Aug 10 18:06:09 2020Mon Aug 10 18:07:26 2020_________________________________________________________________
Layer (type)                 Output Shape              Param #   
=================================================================
lambda_1 (Lambda)            (None, 66, 200, 3)        0         
_________________________________________________________________
conv2d_1 (Conv2D)            (None, 31, 98, 24)        1824      
_________________________________________________________________
conv2d_2 (Conv2D)            (None, 14, 47, 36)        21636     
_________________________________________________________________
conv2d_3 (Conv2D)            (None, 5, 22, 48)         43248     
_________________________________________________________________
conv2d_4 (Conv2D)            (None, 3, 20, 64)         27712     
_________________________________________________________________
conv2d_5 (Conv2D)            (None, 1, 18, 64)         36928     
_________________________________________________________________
flatten_1 (Flatten)          (None, 1152)              0         
_________________________________________________________________
dense_1 (Dense)              (None, 1164)              1342092   
_________________________________________________________________
dense_2 (Dense)              (None, 100)               116500    
_________________________________________________________________
dense_3 (Dense)              (None, 50)                5050      
_________________________________________________________________
dropout_1 (Dropout)          (None, 50)                0         
_________________________________________________________________
dense_4 (Dense)              (None, 10)                510       
_________________________________________________________________
dense_5 (Dense)              (None, 1)                 11        
=================================================================
Total params: 1,595,511
Trainable params: 1,595,511
Non-trainable params: 0
_________________________________________________________________
{'loss': [41.66920438483556, 0.10871078122986688, 0.016598366319305367, 0.0038895690134829945, 0.001669950429839082], 'val_loss': [9.600031043588313e-06, 9.224704700390523e-06, 1.4195436459305416e-05, 1.537275273215104e-05, 1.4348899357106126e-05], 'lr': [1e-04, 1e-04, 1e-04, 1e-04, 1e-04]}
=================================================================================

Mon Aug 10 18:17:08 2020_________________________________________________________________
Layer (type)                 Output Shape              Param #   
=================================================================
conv2d_1 (Conv2D)            (None, 31, 98, 24)        1824      
_________________________________________________________________
conv2d_2 (Conv2D)            (None, 14, 47, 36)        21636     
_________________________________________________________________
conv2d_3 (Conv2D)            (None, 5, 22, 48)         43248     
_________________________________________________________________
conv2d_4 (Conv2D)            (None, 3, 20, 64)         27712     
_________________________________________________________________
conv2d_5 (Conv2D)            (None, 1, 18, 64)         36928     
_________________________________________________________________
flatten_1 (Flatten)          (None, 1152)              0         
_________________________________________________________________
dense_1 (Dense)              (None, 1164)              1342092   
_________________________________________________________________
dense_2 (Dense)              (None, 100)               116500    
_________________________________________________________________
dense_3 (Dense)              (None, 50)                5050      
_________________________________________________________________
dropout_1 (Dropout)          (None, 50)                0         
_________________________________________________________________
dense_4 (Dense)              (None, 10)                510       
_________________________________________________________________
dense_5 (Dense)              (None, 1)                 11        
=================================================================
Total params: 1,595,511
Trainable params: 1,595,511
Non-trainable params: 0
_________________________________________________________________
{'val_loss': [0.14955617907703886, 0.14956160645571945, 0.14956052373277354, 0.1495725089388238, 0.1495761863117839], 'loss': [0.4564695426781972, 0.14746553122467465, 0.1466630083269543, 0.1459404207865397, 0.14468454278707504], 'lr': [1e-04, 1e-04, 1e-04, 1e-04, 2e-05]}
…
